…
[FedML-Client @device-id-0] [Tue, 20 Aug 2024 11:46:43] [INFO] [abstract_scenario.py:31:info] (float64):
[FedML-Client @device-id-0] [Tue, 20 Aug 2024 11:46:43] [INFO] [abstract_scenario.py:31:info]
[FedML-Client @device-id-0] [Tue, 20 Aug 2024 11:46:43] [INFO] [abstract_scenario.py:31:info] 10000x1
[FedML-Client @device-id-0] [Tue, 20 Aug 2024 11:46:43] [INFO] [abstract_scenario.py:31:info]
[FedML-Client @device-id-0] [Tue, 20 Aug 2024 11:46:44] [INFO] [model_hub.py:24:create] create_model. model_name = lr, output_dim = None
[FedML-Client @device-id-0] [Tue, 20 Aug 2024 11:46:44] [INFO] [fedavg_api.py:58:__init__] model = [[DefaultCNN(
  (cnn): Sequential(
    (0): Conv2d(1, 20, kernel_size=(3, 3), stride=(1, 1), padding=(1, 1))
    (1): LeakyReLU(negative_slope=0.01)
    (2): MaxPool2d(kernel_size=2, stride=2, padding=0, dilation=1, ceil_mode=False)
    (3): Dropout(p=0.0, inplace=False)
    (4): Conv2d(20, 50, kernel_size=(3, 3), stride=(1, 1), padding=(2, 2))
    (5): LeakyReLU(negative_slope=0.01)
    (6): MaxPool2d(kernel_size=2, stride=2, padding=0, dilation=1, ceil_mode=False)
    (7): Dropout(p=0.0, inplace=False)
  )
  (linear_1): Linear(in_features=3200, out_features=200, bias=True)
  (linear_2): Linear(in_features=200, out_features=10, bias=True)
  (linear_3): Linear(in_features=10, out_features=1, bias=True)
  (bn): BatchNorm1d(10, eps=1e-05, momentum=0.1, affine=True, track_running_stats=True)
)], [MLPModel(
  (model): Sequential(
    (0): Linear(in_features=1, out_features=20, bias=True)
    (1): LeakyReLU(negative_slope=0.01)
    (2): Linear(in_features=20, out_features=1, bias=True)
  )
)], [DefaultCNN(
  (cnn): Sequential(
    (0): Conv2d(1, 20, kernel_size=(3, 3), stride=(1, 1), padding=(1, 1))
    (1): LeakyReLU(negative_slope=0.01)
    (2): MaxPool2d(kernel_size=2, stride=2, padding=0, dilation=1, ceil_mode=False)
    (3): Dropout(p=0.0, inplace=False)
    (4): Conv2d(20, 50, kernel_size=(3, 3), stride=(1, 1), padding=(2, 2))
    (5): LeakyReLU(negative_slope=0.01)
    (6): MaxPool2d(kernel_size=2, stride=2, padding=0, dilation=1, ceil_mode=False)
    (7): Dropout(p=0.0, inplace=False)
  )
  (linear_1): Linear(in_features=3200, out_features=200, bias=True)
  (linear_2): Linear(in_features=200, out_features=10, bias=True)
  (linear_3): Linear(in_features=10, out_features=1, bias=True)
  (bn): BatchNorm1d(10, eps=1e-05, momentum=0.1, affine=True, track_running_stats=True)
)]]
[FedML-Client @device-id-0] [Tue, 20 Aug 2024 11:46:44] [INFO] [model_selection_class.py:38:do_model_selection] starting learning args eval 0
[FedML-Client @device-id-0] [Tue, 20 Aug 2024 11:46:44] [INFO] [model_selection_class.py:38:do_model_selection]
/home/somya/thesis/fedgmm/sp_decentralized_mnist_lr_example/optimizers/oadam.py:94: UserWarning: This overload of add_ is deprecated:
…
